###############################################################################################################################
model DataParallel(
  (module): UNet_3Plus(
    (conv1): unetConv2(
      (conv1): Sequential(
        (0): Conv2d(13, 64, kernel_size=(3, 3), stride=(1, 1), padding=(1, 1))
        (1): BatchNorm2d(64, eps=1e-05, momentum=0.1, affine=True, track_running_stats=True)
        (2): ReLU(inplace=True)
      )
      (conv2): Sequential(
        (0): Conv2d(64, 64, kernel_size=(3, 3), stride=(1, 1), padding=(1, 1))
        (1): BatchNorm2d(64, eps=1e-05, momentum=0.1, affine=True, track_running_stats=True)
        (2): ReLU(inplace=True)
      )
    )
    (maxpool1): MaxPool2d(kernel_size=2, stride=2, padding=0, dilation=1, ceil_mode=False)
    (conv2): unetConv2(
      (conv1): Sequential(
        (0): Conv2d(64, 128, kernel_size=(3, 3), stride=(1, 1), padding=(1, 1))
        (1): BatchNorm2d(128, eps=1e-05, momentum=0.1, affine=True, track_running_stats=True)
        (2): ReLU(inplace=True)
      )
      (conv2): Sequential(
        (0): Conv2d(128, 128, kernel_size=(3, 3), stride=(1, 1), padding=(1, 1))
        (1): BatchNorm2d(128, eps=1e-05, momentum=0.1, affine=True, track_running_stats=True)
        (2): ReLU(inplace=True)
      )
    )
    (maxpool2): MaxPool2d(kernel_size=2, stride=2, padding=0, dilation=1, ceil_mode=False)
    (conv3): unetConv2(
      (conv1): Sequential(
        (0): Conv2d(128, 256, kernel_size=(3, 3), stride=(1, 1), padding=(1, 1))
        (1): BatchNorm2d(256, eps=1e-05, momentum=0.1, affine=True, track_running_stats=True)
        (2): ReLU(inplace=True)
      )
      (conv2): Sequential(
        (0): Conv2d(256, 256, kernel_size=(3, 3), stride=(1, 1), padding=(1, 1))
        (1): BatchNorm2d(256, eps=1e-05, momentum=0.1, affine=True, track_running_stats=True)
        (2): ReLU(inplace=True)
      )
    )
    (maxpool3): MaxPool2d(kernel_size=2, stride=2, padding=0, dilation=1, ceil_mode=False)
    (conv4): unetConv2(
      (conv1): Sequential(
        (0): Conv2d(256, 512, kernel_size=(3, 3), stride=(1, 1), padding=(1, 1))
        (1): BatchNorm2d(512, eps=1e-05, momentum=0.1, affine=True, track_running_stats=True)
        (2): ReLU(inplace=True)
      )
      (conv2): Sequential(
        (0): Conv2d(512, 512, kernel_size=(3, 3), stride=(1, 1), padding=(1, 1))
        (1): BatchNorm2d(512, eps=1e-05, momentum=0.1, affine=True, track_running_stats=True)
        (2): ReLU(inplace=True)
      )
    )
    (maxpool4): MaxPool2d(kernel_size=2, stride=2, padding=0, dilation=1, ceil_mode=False)
    (conv5): unetConv2(
      (conv1): Sequential(
        (0): Conv2d(512, 1024, kernel_size=(3, 3), stride=(1, 1), padding=(1, 1))
        (1): BatchNorm2d(1024, eps=1e-05, momentum=0.1, affine=True, track_running_stats=True)
        (2): ReLU(inplace=True)
      )
      (conv2): Sequential(
        (0): Conv2d(1024, 1024, kernel_size=(3, 3), stride=(1, 1), padding=(1, 1))
        (1): BatchNorm2d(1024, eps=1e-05, momentum=0.1, affine=True, track_running_stats=True)
        (2): ReLU(inplace=True)
      )
    )
    (h1_PT_hd4): MaxPool2d(kernel_size=8, stride=8, padding=0, dilation=1, ceil_mode=True)
    (h1_PT_hd4_conv): Conv2d(64, 64, kernel_size=(3, 3), stride=(1, 1), padding=(1, 1))
    (h1_PT_hd4_bn): BatchNorm2d(64, eps=1e-05, momentum=0.1, affine=True, track_running_stats=True)
    (h1_PT_hd4_relu): ReLU(inplace=True)
    (h2_PT_hd4): MaxPool2d(kernel_size=4, stride=4, padding=0, dilation=1, ceil_mode=True)
    (h2_PT_hd4_conv): Conv2d(128, 64, kernel_size=(3, 3), stride=(1, 1), padding=(1, 1))
    (h2_PT_hd4_bn): BatchNorm2d(64, eps=1e-05, momentum=0.1, affine=True, track_running_stats=True)
    (h2_PT_hd4_relu): ReLU(inplace=True)
    (h3_PT_hd4): MaxPool2d(kernel_size=2, stride=2, padding=0, dilation=1, ceil_mode=True)
    (h3_PT_hd4_conv): Conv2d(256, 64, kernel_size=(3, 3), stride=(1, 1), padding=(1, 1))
    (h3_PT_hd4_bn): BatchNorm2d(64, eps=1e-05, momentum=0.1, affine=True, track_running_stats=True)
    (h3_PT_hd4_relu): ReLU(inplace=True)
    (h4_Cat_hd4_conv): Conv2d(512, 64, kernel_size=(3, 3), stride=(1, 1), padding=(1, 1))
    (h4_Cat_hd4_bn): BatchNorm2d(64, eps=1e-05, momentum=0.1, affine=True, track_running_stats=True)
    (h4_Cat_hd4_relu): ReLU(inplace=True)
    (hd5_UT_hd4): Upsample(scale_factor=2.0, mode=bilinear)
    (hd5_UT_hd4_conv): Conv2d(1024, 64, kernel_size=(3, 3), stride=(1, 1), padding=(1, 1))
    (hd5_UT_hd4_bn): BatchNorm2d(64, eps=1e-05, momentum=0.1, affine=True, track_running_stats=True)
    (hd5_UT_hd4_relu): ReLU(inplace=True)
    (conv4d_1): Conv2d(320, 320, kernel_size=(3, 3), stride=(1, 1), padding=(1, 1))
    (bn4d_1): BatchNorm2d(320, eps=1e-05, momentum=0.1, affine=True, track_running_stats=True)
    (relu4d_1): ReLU(inplace=True)
    (h1_PT_hd3): MaxPool2d(kernel_size=4, stride=4, padding=0, dilation=1, ceil_mode=True)
    (h1_PT_hd3_conv): Conv2d(64, 64, kernel_size=(3, 3), stride=(1, 1), padding=(1, 1))
    (h1_PT_hd3_bn): BatchNorm2d(64, eps=1e-05, momentum=0.1, affine=True, track_running_stats=True)
    (h1_PT_hd3_relu): ReLU(inplace=True)
    (h2_PT_hd3): MaxPool2d(kernel_size=2, stride=2, padding=0, dilation=1, ceil_mode=True)
    (h2_PT_hd3_conv): Conv2d(128, 64, kernel_size=(3, 3), stride=(1, 1), padding=(1, 1))
    (h2_PT_hd3_bn): BatchNorm2d(64, eps=1e-05, momentum=0.1, affine=True, track_running_stats=True)
    (h2_PT_hd3_relu): ReLU(inplace=True)
    (h3_Cat_hd3_conv): Conv2d(256, 64, kernel_size=(3, 3), stride=(1, 1), padding=(1, 1))
    (h3_Cat_hd3_bn): BatchNorm2d(64, eps=1e-05, momentum=0.1, affine=True, track_running_stats=True)
    (h3_Cat_hd3_relu): ReLU(inplace=True)
    (hd4_UT_hd3): Upsample(scale_factor=2.0, mode=bilinear)
    (hd4_UT_hd3_conv): Conv2d(320, 64, kernel_size=(3, 3), stride=(1, 1), padding=(1, 1))
    (hd4_UT_hd3_bn): BatchNorm2d(64, eps=1e-05, momentum=0.1, affine=True, track_running_stats=True)
    (hd4_UT_hd3_relu): ReLU(inplace=True)
    (hd5_UT_hd3): Upsample(scale_factor=4.0, mode=bilinear)
    (hd5_UT_hd3_conv): Conv2d(1024, 64, kernel_size=(3, 3), stride=(1, 1), padding=(1, 1))
    (hd5_UT_hd3_bn): BatchNorm2d(64, eps=1e-05, momentum=0.1, affine=True, track_running_stats=True)
    (hd5_UT_hd3_relu): ReLU(inplace=True)
    (conv3d_1): Conv2d(320, 320, kernel_size=(3, 3), stride=(1, 1), padding=(1, 1))
    (bn3d_1): BatchNorm2d(320, eps=1e-05, momentum=0.1, affine=True, track_running_stats=True)
    (relu3d_1): ReLU(inplace=True)
    (h1_PT_hd2): MaxPool2d(kernel_size=2, stride=2, padding=0, dilation=1, ceil_mode=True)
    (h1_PT_hd2_conv): Conv2d(64, 64, kernel_size=(3, 3), stride=(1, 1), padding=(1, 1))
    (h1_PT_hd2_bn): BatchNorm2d(64, eps=1e-05, momentum=0.1, affine=True, track_running_stats=True)
    (h1_PT_hd2_relu): ReLU(inplace=True)
    (h2_Cat_hd2_conv): Conv2d(128, 64, kernel_size=(3, 3), stride=(1, 1), padding=(1, 1))
    (h2_Cat_hd2_bn): BatchNorm2d(64, eps=1e-05, momentum=0.1, affine=True, track_running_stats=True)
    (h2_Cat_hd2_relu): ReLU(inplace=True)
    (hd3_UT_hd2): Upsample(scale_factor=2.0, mode=bilinear)
    (hd3_UT_hd2_conv): Conv2d(320, 64, kernel_size=(3, 3), stride=(1, 1), padding=(1, 1))
    (hd3_UT_hd2_bn): BatchNorm2d(64, eps=1e-05, momentum=0.1, affine=True, track_running_stats=True)
    (hd3_UT_hd2_relu): ReLU(inplace=True)
    (hd4_UT_hd2): Upsample(scale_factor=4.0, mode=bilinear)
    (hd4_UT_hd2_conv): Conv2d(320, 64, kernel_size=(3, 3), stride=(1, 1), padding=(1, 1))
    (hd4_UT_hd2_bn): BatchNorm2d(64, eps=1e-05, momentum=0.1, affine=True, track_running_stats=True)
    (hd4_UT_hd2_relu): ReLU(inplace=True)
    (hd5_UT_hd2): Upsample(scale_factor=8.0, mode=bilinear)
    (hd5_UT_hd2_conv): Conv2d(1024, 64, kernel_size=(3, 3), stride=(1, 1), padding=(1, 1))
    (hd5_UT_hd2_bn): BatchNorm2d(64, eps=1e-05, momentum=0.1, affine=True, track_running_stats=True)
    (hd5_UT_hd2_relu): ReLU(inplace=True)
    (conv2d_1): Conv2d(320, 320, kernel_size=(3, 3), stride=(1, 1), padding=(1, 1))
    (bn2d_1): BatchNorm2d(320, eps=1e-05, momentum=0.1, affine=True, track_running_stats=True)
    (relu2d_1): ReLU(inplace=True)
    (h1_Cat_hd1_conv): Conv2d(64, 64, kernel_size=(3, 3), stride=(1, 1), padding=(1, 1))
    (h1_Cat_hd1_bn): BatchNorm2d(64, eps=1e-05, momentum=0.1, affine=True, track_running_stats=True)
    (h1_Cat_hd1_relu): ReLU(inplace=True)
    (hd2_UT_hd1): Upsample(scale_factor=2.0, mode=bilinear)
    (hd2_UT_hd1_conv): Conv2d(320, 64, kernel_size=(3, 3), stride=(1, 1), padding=(1, 1))
    (hd2_UT_hd1_bn): BatchNorm2d(64, eps=1e-05, momentum=0.1, affine=True, track_running_stats=True)
    (hd2_UT_hd1_relu): ReLU(inplace=True)
    (hd3_UT_hd1): Upsample(scale_factor=4.0, mode=bilinear)
    (hd3_UT_hd1_conv): Conv2d(320, 64, kernel_size=(3, 3), stride=(1, 1), padding=(1, 1))
    (hd3_UT_hd1_bn): BatchNorm2d(64, eps=1e-05, momentum=0.1, affine=True, track_running_stats=True)
    (hd3_UT_hd1_relu): ReLU(inplace=True)
    (hd4_UT_hd1): Upsample(scale_factor=8.0, mode=bilinear)
    (hd4_UT_hd1_conv): Conv2d(320, 64, kernel_size=(3, 3), stride=(1, 1), padding=(1, 1))
    (hd4_UT_hd1_bn): BatchNorm2d(64, eps=1e-05, momentum=0.1, affine=True, track_running_stats=True)
    (hd4_UT_hd1_relu): ReLU(inplace=True)
    (hd5_UT_hd1): Upsample(scale_factor=16.0, mode=bilinear)
    (hd5_UT_hd1_conv): Conv2d(1024, 64, kernel_size=(3, 3), stride=(1, 1), padding=(1, 1))
    (hd5_UT_hd1_bn): BatchNorm2d(64, eps=1e-05, momentum=0.1, affine=True, track_running_stats=True)
    (hd5_UT_hd1_relu): ReLU(inplace=True)
    (conv1d_1): Conv2d(320, 320, kernel_size=(3, 3), stride=(1, 1), padding=(1, 1))
    (bn1d_1): BatchNorm2d(320, eps=1e-05, momentum=0.1, affine=True, track_running_stats=True)
    (relu1d_1): ReLU(inplace=True)
    (outconv1): Conv2d(320, 1, kernel_size=(3, 3), stride=(1, 1), padding=(1, 1))
  )
)
loss Unet3Plus mseloss
    Total params: 26.98M

Epoch: [1 | 100] LR: 0.000100
  0%|          | 0/250 [00:00<?, ?it/s]/home/jinxiangze/.conda/envs/torch1.8.1/lib/python3.6/site-packages/torch/nn/functional.py:3635: UserWarning: Default upsampling behavior when mode=bilinear is changed to align_corners=False since 0.4.0. Please specify align_corners=True if the old behavior is desired. See the documentation of nn.Upsample for details.
…
